Model: "model"
__________________________________________________________________________________________________
 Layer (type)                   Output Shape         Param #     Connected to
==================================================================================================
 input_1 (InputLayer)           [(None, 512, 512, 3  0           []
                                )]

 conv2d (Conv2D)                (None, 512, 512, 8)  224         ['input_1[0][0]']

 batch_normalization (BatchNorm  (None, 512, 512, 8)  32         ['conv2d[0][0]']
 alization)

 leaky_re_lu (LeakyReLU)        (None, 512, 512, 8)  0           ['batch_normalization[0][0]']

 conv2d_1 (Conv2D)              (None, 512, 512, 8)  584         ['leaky_re_lu[0][0]']

 batch_normalization_1 (BatchNo  (None, 512, 512, 8)  32         ['conv2d_1[0][0]']
 rmalization)

 leaky_re_lu_1 (LeakyReLU)      (None, 512, 512, 8)  0           ['batch_normalization_1[0][0]']

 max_pooling2d (MaxPooling2D)   (None, 256, 256, 8)  0           ['leaky_re_lu_1[0][0]']

 conv2d_2 (Conv2D)              (None, 256, 256, 16  1168        ['max_pooling2d[0][0]']
                                )

 batch_normalization_2 (BatchNo  (None, 256, 256, 16  64         ['conv2d_2[0][0]']
 rmalization)                   )

 leaky_re_lu_2 (LeakyReLU)      (None, 256, 256, 16  0           ['batch_normalization_2[0][0]']
                                )
…
 batch_normalization_4 (BatchNo  (None, 128, 128, 32  128        ['conv2d_4[0][0]']
 rmalization)                   )

 leaky_re_lu_4 (LeakyReLU)      (None, 128, 128, 32  0           ['batch_normalization_4[0][0]']
                                )

 conv2d_5 (Conv2D)              (None, 128, 128, 32  9248        ['leaky_re_lu_4[0][0]']
                                )

 batch_normalization_5 (BatchNo  (None, 128, 128, 32  128        ['conv2d_5[0][0]']
 rmalization)                   )

 leaky_re_lu_5 (LeakyReLU)      (None, 128, 128, 32  0           ['batch_normalization_5[0][0]']
                                )

 max_pooling2d_2 (MaxPooling2D)  (None, 64, 64, 32)  0           ['leaky_re_lu_5[0][0]']

 conv2d_6 (Conv2D)              (None, 64, 64, 64)   18496       ['max_pooling2d_2[0][0]']

 batch_normalization_6 (BatchNo  (None, 64, 64, 64)  256         ['conv2d_6[0][0]']
 rmalization)

 leaky_re_lu_6 (LeakyReLU)      (None, 64, 64, 64)   0           ['batch_normalization_6[0][0]']

 conv2d_7 (Conv2D)              (None, 64, 64, 64)   36928       ['leaky_re_lu_6[0][0]']

 batch_normalization_7 (BatchNo  (None, 64, 64, 64)  256         ['conv2d_7[0][0]']
 rmalization)

 leaky_re_lu_7 (LeakyReLU)      (None, 64, 64, 64)   0           ['batch_normalization_7[0][0]']

 max_pooling2d_3 (MaxPooling2D)  (None, 32, 32, 64)  0           ['leaky_re_lu_7[0][0]']

 conv2d_8 (Conv2D)              (None, 32, 32, 128)  73856       ['max_pooling2d_3[0][0]']

 batch_normalization_8 (BatchNo  (None, 32, 32, 128)  512        ['conv2d_8[0][0]']
 rmalization)

 leaky_re_lu_8 (LeakyReLU)      (None, 32, 32, 128)  0           ['batch_normalization_8[0][0]']

 dropout (Dropout)              (None, 32, 32, 128)  0           ['leaky_re_lu_8[0][0]']

 conv2d_9 (Conv2D)              (None, 32, 32, 128)  147584      ['dropout[0][0]']

 batch_normalization_9 (BatchNo  (None, 32, 32, 128)  512        ['conv2d_9[0][0]']
 rmalization)

 leaky_re_lu_9 (LeakyReLU)      (None, 32, 32, 128)  0           ['batch_normalization_9[0][0]']

 dropout_1 (Dropout)            (None, 32, 32, 128)  0           ['leaky_re_lu_9[0][0]']

 conv2d_transpose (Conv2DTransp  (None, 64, 64, 64)  73792       ['dropout_1[0][0]']
 ose)

 batch_normalization_10 (BatchN  (None, 64, 64, 64)  256         ['conv2d_transpose[0][0]']
 ormalization)

 leaky_re_lu_10 (LeakyReLU)     (None, 64, 64, 64)   0           ['batch_normalization_10[0][0]']

 concatenate (Concatenate)      (None, 64, 64, 128)  0           ['leaky_re_lu_7[0][0]',
                                                                  'leaky_re_lu_10[0][0]']

 dropout_2 (Dropout)            (None, 64, 64, 128)  0           ['concatenate[0][0]']

 conv2d_10 (Conv2D)             (None, 64, 64, 64)   73792       ['dropout_2[0][0]']

 batch_normalization_11 (BatchN  (None, 64, 64, 64)  256         ['conv2d_10[0][0]']
 ormalization)

 leaky_re_lu_11 (LeakyReLU)     (None, 64, 64, 64)   0           ['batch_normalization_11[0][0]']

 conv2d_11 (Conv2D)             (None, 64, 64, 64)   36928       ['leaky_re_lu_11[0][0]']

 batch_normalization_12 (BatchN  (None, 64, 64, 64)  256         ['conv2d_11[0][0]']
 ormalization)

 leaky_re_lu_12 (LeakyReLU)     (None, 64, 64, 64)   0           ['batch_normalization_12[0][0]']

 conv2d_transpose_1 (Conv2DTran  (None, 128, 128, 32  18464      ['leaky_re_lu_12[0][0]']
 spose)                         )

 batch_normalization_13 (BatchN  (None, 128, 128, 32  128        ['conv2d_transpose_1[0][0]']
 ormalization)                  )

 leaky_re_lu_13 (LeakyReLU)     (None, 128, 128, 32  0           ['batch_normalization_13[0][0]']
                                )
…
 batch_normalization_17 (BatchN  (None, 256, 256, 16  64         ['conv2d_14[0][0]']
 ormalization)                  )

 leaky_re_lu_17 (LeakyReLU)     (None, 256, 256, 16  0           ['batch_normalization_17[0][0]']
                                )

 conv2d_15 (Conv2D)             (None, 256, 256, 16  2320        ['leaky_re_lu_17[0][0]']
                                )

 batch_normalization_18 (BatchN  (None, 256, 256, 16  64         ['conv2d_15[0][0]']
 ormalization)                  )

 leaky_re_lu_18 (LeakyReLU)     (None, 256, 256, 16  0           ['batch_normalization_18[0][0]']
                                )

 conv2d_transpose_3 (Conv2DTran  (None, 512, 512, 8)  1160       ['leaky_re_lu_18[0][0]']
 spose)

 batch_normalization_19 (BatchN  (None, 512, 512, 8)  32         ['conv2d_transpose_3[0][0]']
 ormalization)

 leaky_re_lu_19 (LeakyReLU)     (None, 512, 512, 8)  0           ['batch_normalization_19[0][0]']

 concatenate_3 (Concatenate)    (None, 512, 512, 16  0           ['leaky_re_lu_1[0][0]',
                                )                                 'leaky_re_lu_19[0][0]']

 dropout_5 (Dropout)            (None, 512, 512, 16  0           ['concatenate_3[0][0]']
                                )

 conv2d_16 (Conv2D)             (None, 512, 512, 8)  1160        ['dropout_5[0][0]']

 batch_normalization_20 (BatchN  (None, 512, 512, 8)  32         ['conv2d_16[0][0]']
 ormalization)

 leaky_re_lu_20 (LeakyReLU)     (None, 512, 512, 8)  0           ['batch_normalization_20[0][0]']

 conv2d_17 (Conv2D)             (None, 512, 512, 8)  584         ['leaky_re_lu_20[0][0]']

 batch_normalization_21 (BatchN  (None, 512, 512, 8)  32         ['conv2d_17[0][0]']
 ormalization)

 leaky_re_lu_21 (LeakyReLU)     (None, 512, 512, 8)  0           ['batch_normalization_21[0][0]']

 dropout_6 (Dropout)            (None, 512, 512, 8)  0           ['leaky_re_lu_21[0][0]']

 conv2d_18 (Conv2D)             (None, 512, 512, 3)  27          ['dropout_6[0][0]']

==================================================================================================
Total params: 543,659
Trainable params: 541,947
Non-trainable params: 1,712
__________________________________________________________________________________________________